#loc = loc("/teamspace/studios/this_studio/insight/fused_kernels.py":43:0)
module {
  tt.func public @_fused_gated_activation_kernel(%arg0: !tt.ptr<f32> {tt.divisibility = 16 : i32} loc("/teamspace/studios/this_studio/insight/fused_kernels.py":43:0), %arg1: !tt.ptr<f32> {tt.divisibility = 16 : i32} loc("/teamspace/studios/this_studio/insight/fused_kernels.py":43:0), %arg2: !tt.ptr<f32> {tt.divisibility = 16 : i32} loc("/teamspace/studios/this_studio/insight/fused_kernels.py":43:0)) attributes {noinline = false} {
    %cst = arith.constant dense<0.000000e+00> : tensor<1024xf32> loc(#loc1)
    %cst_0 = arith.constant dense<1.000000e+00> : tensor<1024xf32> loc(#loc1)
    %cst_1 = arith.constant dense<2.000000e+00> : tensor<1024xf32> loc(#loc1)
    %cst_2 = arith.constant dense<32768> : tensor<1024xi32> loc(#loc1)
    %c1024_i32 = arith.constant 1024 : i32 loc(#loc1)
    %0 = tt.get_program_id x : i32 loc(#loc2)
    %1 = arith.muli %0, %c1024_i32 : i32 loc(#loc3)
    %2 = tt.make_range {end = 1024 : i32, start = 0 : i32} : tensor<1024xi32> loc(#loc4)
    %3 = tt.splat %1 : i32 -> tensor<1024xi32> loc(#loc5)
    %4 = arith.addi %3, %2 : tensor<1024xi32> loc(#loc5)
    %5 = arith.cmpi slt, %4, %cst_2 : tensor<1024xi32> loc(#loc6)
    %6 = tt.splat %arg0 : !tt.ptr<f32> -> tensor<1024x!tt.ptr<f32>> loc(#loc7)
    %7 = tt.addptr %6, %4 : tensor<1024x!tt.ptr<f32>>, tensor<1024xi32> loc(#loc7)
    %8 = tt.load %7, %5 : tensor<1024x!tt.ptr<f32>> loc(#loc8)
    %9 = tt.splat %arg1 : !tt.ptr<f32> -> tensor<1024x!tt.ptr<f32>> loc(#loc9)
    %10 = tt.addptr %9, %4 : tensor<1024x!tt.ptr<f32>>, tensor<1024xi32> loc(#loc9)
    %11 = tt.load %10, %5 : tensor<1024x!tt.ptr<f32>> loc(#loc10)
    %12 = arith.mulf %8, %cst_1 : tensor<1024xf32> loc(#loc11)
    %13 = arith.subf %cst, %12 : tensor<1024xf32> loc(#loc24)
    %14 = math.exp %13 : tensor<1024xf32> loc(#loc25)
    %15 = arith.addf %14, %cst_0 : tensor<1024xf32> loc(#loc26)
    %16 = arith.divf %cst_0, %15 : tensor<1024xf32> loc(#loc27)
    %17 = arith.mulf %16, %cst_1 : tensor<1024xf32> loc(#loc17)
    %18 = arith.subf %17, %cst_0 : tensor<1024xf32> loc(#loc18)
    %19 = arith.subf %cst, %11 : tensor<1024xf32> loc(#loc28)
    %20 = math.exp %19 : tensor<1024xf32> loc(#loc29)
    %21 = arith.addf %20, %cst_0 : tensor<1024xf32> loc(#loc30)
    %22 = arith.divf %cst_0, %21 : tensor<1024xf32> loc(#loc31)
    %23 = arith.mulf %18, %22 : tensor<1024xf32> loc(#loc20)
    %24 = tt.splat %arg2 : !tt.ptr<f32> -> tensor<1024x!tt.ptr<f32>> loc(#loc21)
    %25 = tt.addptr %24, %4 : tensor<1024x!tt.ptr<f32>>, tensor<1024xi32> loc(#loc21)
    tt.store %25, %23, %5 : tensor<1024x!tt.ptr<f32>> loc(#loc22)
    tt.return loc(#loc23)
  } loc(#loc)
} loc(#loc)
#loc1 = loc(unknown)
#loc2 = loc("/teamspace/studios/this_studio/insight/fused_kernels.py":52:24)
#loc3 = loc("/teamspace/studios/this_studio/insight/fused_kernels.py":53:19)
#loc4 = loc("/teamspace/studios/this_studio/insight/fused_kernels.py":53:45)
#loc5 = loc("/teamspace/studios/this_studio/insight/fused_kernels.py":53:32)
#loc6 = loc("/teamspace/studios/this_studio/insight/fused_kernels.py":54:20)
#loc7 = loc("/teamspace/studios/this_studio/insight/fused_kernels.py":56:29)
#loc8 = loc("/teamspace/studios/this_studio/insight/fused_kernels.py":56:16)
#loc9 = loc("/teamspace/studios/this_studio/insight/fused_kernels.py":57:27)
#loc10 = loc("/teamspace/studios/this_studio/insight/fused_kernels.py":57:16)
#loc11 = loc("/teamspace/studios/this_studio/insight/fused_kernels.py":59:36)
#loc12 = loc("/home/zeus/miniconda3/envs/cloudspace/lib/python3.12/site-packages/triton/language/standard.py":47:30)
#loc13 = loc("/teamspace/studios/this_studio/insight/fused_kernels.py":59:30)
#loc14 = loc("/home/zeus/miniconda3/envs/cloudspace/lib/python3.12/site-packages/triton/language/standard.py":47:29)
#loc15 = loc("/home/zeus/miniconda3/envs/cloudspace/lib/python3.12/site-packages/triton/language/standard.py":47:20)
#loc16 = loc("/home/zeus/miniconda3/envs/cloudspace/lib/python3.12/site-packages/triton/language/standard.py":47:16)
#loc17 = loc("/teamspace/studios/this_studio/insight/fused_kernels.py":59:19)
#loc18 = loc("/teamspace/studios/this_studio/insight/fused_kernels.py":59:41)
#loc19 = loc("/teamspace/studios/this_studio/insight/fused_kernels.py":60:27)
#loc20 = loc("/teamspace/studios/this_studio/insight/fused_kernels.py":62:19)
#loc21 = loc("/teamspace/studios/this_studio/insight/fused_kernels.py":63:26)
#loc22 = loc("/teamspace/studios/this_studio/insight/fused_kernels.py":63:34)
#loc23 = loc("/teamspace/studios/this_studio/insight/fused_kernels.py":63:4)
#loc24 = loc(callsite(#loc12 at #loc13))
#loc25 = loc(callsite(#loc14 at #loc13))
#loc26 = loc(callsite(#loc15 at #loc13))
#loc27 = loc(callsite(#loc16 at #loc13))
#loc28 = loc(callsite(#loc12 at #loc19))
#loc29 = loc(callsite(#loc14 at #loc19))
#loc30 = loc(callsite(#loc15 at #loc19))
#loc31 = loc(callsite(#loc16 at #loc19))
